…
15/04/18 01:13:29 INFO BlockManagerInfo: Removed broadcast_3_piece0 on localhost:37719 in memory (size: 5.9 KB, free: 3.1 GB)
15/04/18 01:13:29 INFO BlockManagerMaster: Updated info of block broadcast_3_piece0
15/04/18 01:13:29 INFO BlockManager: Removing block broadcast_3
15/04/18 01:13:29 INFO MemoryStore: Block broadcast_3 of size 7968 dropped from memory (free 3332356505)
15/04/18 01:13:29 INFO ContextCleaner: Cleaned broadcast 3
WARNING: Logging before InitGoogleLogging() is written to STDERR
I0418 01:13:32.661945  8320 net.cpp:39] Initializing net from parameters: 
name: "AlexNet"
layers {
  bottom: "data"
  top: "conv1"
  name: "conv1"
  type: CONVOLUTION
  blobs_lr: 1
  blobs_lr: 2
  weight_decay: 1
  weight_decay: 0
  convolution_param {
    num_output: 96
    kernel_size: 11
    stride: 4
  }
}
layers {
  bottom: "conv1"
  top: "conv1"
  name: "relu1"
  type: RELU
}
layers {
  bottom: "conv1"
  top: "norm1"
  name: "norm1"
  type: LRN
  lrn_param {
    local_size: 5
    alpha: 0.0001
    beta: 0.75
  }
}
layers {
  bottom: "norm1"
  top: "pool1"
  name: "pool1"
  type: POOLING
  pooling_param {
    pool: MAX
    kernel_size: 3
    stride: 2
  }
}
layers {
  bottom: "pool1"
  top: "conv2"
  name: "conv2"
  type: CONVOLUTION
  blobs_lr: 1
  blobs_lr: 2
  weight_decay: 1
  weight_decay: 0
  convolution_param {
    num_output: 256
    pad: 2
    kernel_size: 5
    group: 2
  }
}
layers {
  bottom: "conv2"
  top: "conv2"
  name: "relu2"
  type: RELU
}
layers {
  bottom: "conv2"
  top: "norm2"
  name: "norm2"
  type: LRN
  lrn_param {
    local_size: 5
    alpha: 0.0001
    beta: 0.75
  }
}
layers {
  bottom: "norm2"
  top: "pool2"
  name: "pool2"
  type: POOLING
  pooling_param {
    pool: MAX
    kernel_size: 3
    stride: 2
  }
}
layers {
  bottom: "pool2"
  top: "conv3"
  name: "conv3"
  type: CONVOLUTION
  blobs_lr: 1
  blobs_lr: 2
  weight_decay: 1
  weight_decay: 0
  convolution_param {
    num_output: 384
    pad: 1
    kernel_size: 3
  }
}
layers {
  bottom: "conv3"
  top: "conv3"
  name: "relu3"
  type: RELU
}
layers {
  bottom: "conv3"
  top: "conv4"
  name: "conv4"
  type: CONVOLUTION
  blobs_lr: 1
  blobs_lr: 2
  weight_decay: 1
  weight_decay: 0
  convolution_param {
    num_output: 384
    pad: 1
    kernel_size: 3
    group: 2
  }
}
layers {
  bottom: "conv4"
  top: "conv4"
  name: "relu4"
  type: RELU
}
layers {
  bottom: "conv4"
  top: "conv5"
  name: "conv5"
  type: CONVOLUTION
  blobs_lr: 1
  blobs_lr: 2
  weight_decay: 1
  weight_decay: 0
  convolution_param {
    num_output: 256
    pad: 1
    kernel_size: 3
    group: 2
  }
}
layers {
  bottom: "conv5"
  top: "conv5"
  name: "relu5"
  type: RELU
}
layers {
  bottom: "conv5"
  top: "pool5"
  name: "pool5"
  type: POOLING
  pooling_param {
    pool: MAX
    kernel_size: 3
    stride: 2
  }
}
layers {
  bottom: "pool5"
  top: "fc6"
  name: "fc6"
  type: INNER_PRODUCT
  blobs_lr: 1
  blobs_lr: 2
  weight_decay: 1
  weight_decay: 0
  inner_product_param {
    num_output: 4096
  }
}
layers {
  bottom: "fc6"
  top: "fc6"
  name: "relu6"
  type: RELU
}
layers {
  bottom: "fc6"
  top: "fc6"
  name: "drop6"
  type: DROPOUT
  dropout_param {
    dropout_ratio: 0.5
  }
}
layers {
  bottom: "fc6"
  top: "fc7"
  name: "fc7"
  type: INNER_PRODUCT
  blobs_lr: 1
  blobs_lr: 2
  weight_decay: 1
  weight_decay: 0
  inner_product_param {
    num_output: 4096
  }
}
layers {
  bottom: "fc7"
  top: "fc7"
  name: "relu7"
  type: RELU
}
layers {
  bottom: "fc7"
  top: "fc7"
  name: "drop7"
  type: DROPOUT
  dropout_param {
    dropout_ratio: 0.5
  }
}
layers {
  bottom: "fc7"
  top: "fc8"
  name: "fc8"
  type: INNER_PRODUCT
  blobs_lr: 1
  blobs_lr: 2
  weight_decay: 1
  weight_decay: 0
  inner_product_param {
    num_output: 1000
  }
}
layers {
  bottom: "fc8"
  top: "prob"
  name: "prob"
  type: SOFTMAX
}
input: "data"
input_dim: 128
input_dim: 3
input_dim: 227
input_dim: 227
I0418 01:13:32.662145  8320 net.cpp:358] Input 0 -> data
I0418 01:13:32.662196  8320 layer_factory.hpp:78] Creating layer conv1
I0418 01:13:32.662216  8320 net.cpp:67] Creating Layer conv1
I0418 01:13:32.662225  8320 net.cpp:394] conv1 <- data
I0418 01:13:32.662240  8320 net.cpp:356] conv1 -> conv1
I0418 01:13:32.662262  8320 net.cpp:96] Setting up conv1
I0418 01:13:32.662416  8320 net.cpp:103] Top shape: 128 96 55 55 (37171200)
I0418 01:13:32.662444  8320 layer_factory.hpp:78] Creating layer relu1
I0418 01:13:32.662453  8320 net.cpp:67] Creating Layer relu1
I0418 01:13:32.662457  8320 net.cpp:394] relu1 <- conv1
I0418 01:13:32.662467  8320 net.cpp:345] relu1 -> conv1 (in-place)
I0418 01:13:32.662473  8320 net.cpp:96] Setting up relu1
I0418 01:13:32.662480  8320 net.cpp:103] Top shape: 128 96 55 55 (37171200)
I0418 01:13:32.662484  8320 layer_factory.hpp:78] Creating layer norm1
I0418 01:13:32.662493  8320 net.cpp:67] Creating Layer norm1
I0418 01:13:32.662497  8320 net.cpp:394] norm1 <- conv1
I0418 01:13:32.662502  8320 net.cpp:356] norm1 -> norm1
I0418 01:13:32.662510  8320 net.cpp:96] Setting up norm1
I0418 01:13:32.662519  8320 net.cpp:103] Top shape: 128 96 55 55 (37171200)
I0418 01:13:32.662523  8320 layer_factory.hpp:78] Creating layer pool1
I0418 01:13:32.662528  8320 net.cpp:67] Creating Layer pool1
I0418 01:13:32.662533  8320 net.cpp:394] pool1 <- norm1
I0418 01:13:32.662538  8320 net.cpp:356] pool1 -> pool1
I0418 01:13:32.662544  8320 net.cpp:96] Setting up pool1
I0418 01:13:32.662559  8320 net.cpp:103] Top shape: 128 96 27 27 (8957952)
I0418 01:13:32.662564  8320 layer_factory.hpp:78] Creating layer conv2
I0418 01:13:32.662569  8320 net.cpp:67] Creating Layer conv2
I0418 01:13:32.662572  8320 net.cpp:394] conv2 <- pool1
I0418 01:13:32.662581  8320 net.cpp:356] conv2 -> conv2
I0418 01:13:32.662587  8320 net.cpp:96] Setting up conv2
I0418 01:13:32.663697  8320 net.cpp:103] Top shape: 128 256 27 27 (23887872)
I0418 01:13:32.663765  8320 layer_factory.hpp:78] Creating layer relu2
I0418 01:13:32.663774  8320 net.cpp:67] Creating Layer relu2
I0418 01:13:32.663777  8320 net.cpp:394] relu2 <- conv2
I0418 01:13:32.663784  8320 net.cpp:345] relu2 -> conv2 (in-place)
I0418 01:13:32.663789  8320 net.cpp:96] Setting up relu2
I0418 01:13:32.663792  8320 net.cpp:103] Top shape: 128 256 27 27 (23887872)
I0418 01:13:32.663796  8320 layer_factory.hpp:78] Creating layer norm2
I0418 01:13:32.663805  8320 net.cpp:67] Creating Layer norm2
I0418 01:13:32.663807  8320 net.cpp:394] norm2 <- conv2
I0418 01:13:32.663813  8320 net.cpp:356] norm2 -> norm2
I0418 01:13:32.663818  8320 net.cpp:96] Setting up norm2
I0418 01:13:32.663823  8320 net.cpp:103] Top shape: 128 256 27 27 (23887872)
I0418 01:13:32.663826  8320 layer_factory.hpp:78] Creating layer pool2
I0418 01:13:32.663831  8320 net.cpp:67] Creating Layer pool2
I0418 01:13:32.663835  8320 net.cpp:394] pool2 <- norm2
I0418 01:13:32.663842  8320 net.cpp:356] pool2 -> pool2
I0418 01:13:32.663852  8320 net.cpp:96] Setting up pool2
I0418 01:13:32.663858  8320 net.cpp:103] Top shape: 128 256 13 13 (5537792)
I0418 01:13:32.663861  8320 layer_factory.hpp:78] Creating layer conv3
I0418 01:13:32.663871  8320 net.cpp:67] Creating Layer conv3
I0418 01:13:32.663874  8320 net.cpp:394] conv3 <- pool2
I0418 01:13:32.663879  8320 net.cpp:356] conv3 -> conv3
I0418 01:13:32.663885  8320 net.cpp:96] Setting up conv3
I0418 01:13:32.666836  8320 net.cpp:103] Top shape: 128 384 13 13 (8306688)
I0418 01:13:32.666906  8320 layer_factory.hpp:78] Creating layer relu3
I0418 01:13:32.666916  8320 net.cpp:67] Creating Layer relu3
I0418 01:13:32.666923  8320 net.cpp:394] relu3 <- conv3
I0418 01:13:32.666929  8320 net.cpp:345] relu3 -> conv3 (in-place)
I0418 01:13:32.666936  8320 net.cpp:96] Setting up relu3
I0418 01:13:32.666941  8320 net.cpp:103] Top shape: 128 384 13 13 (8306688)
I0418 01:13:32.666944  8320 layer_factory.hpp:78] Creating layer conv4
I0418 01:13:32.666951  8320 net.cpp:67] Creating Layer conv4
I0418 01:13:32.666954  8320 net.cpp:394] conv4 <- conv3
I0418 01:13:32.666962  8320 net.cpp:356] conv4 -> conv4
I0418 01:13:32.666971  8320 net.cpp:96] Setting up conv4
I0418 01:13:32.670115  8320 net.cpp:103] Top shape: 128 384 13 13 (8306688)
I0418 01:13:32.670140  8320 layer_factory.hpp:78] Creating layer relu4
I0418 01:13:32.670194  8320 net.cpp:67] Creating Layer relu4
I0418 01:13:32.670202  8320 net.cpp:394] relu4 <- conv4
I0418 01:13:32.670210  8320 net.cpp:345] relu4 -> conv4 (in-place)
I0418 01:13:32.670222  8320 net.cpp:96] Setting up relu4
I0418 01:13:32.670228  8320 net.cpp:103] Top shape: 128 384 13 13 (8306688)
I0418 01:13:32.670233  8320 layer_factory.hpp:78] Creating layer conv5
I0418 01:13:32.670246  8320 net.cpp:67] Creating Layer conv5
I0418 01:13:32.670253  8320 net.cpp:394] conv5 <- conv4
I0418 01:13:32.670261  8320 net.cpp:356] conv5 -> conv5
I0418 01:13:32.670316  8320 net.cpp:96] Setting up conv5
I0418 01:13:32.672247  8320 net.cpp:103] Top shape: 128 256 13 13 (5537792)
I0418 01:13:32.672322  8320 layer_factory.hpp:78] Creating layer relu5
I0418 01:13:32.672333  8320 net.cpp:67] Creating Layer relu5
I0418 01:13:32.672339  8320 net.cpp:394] relu5 <- conv5
I0418 01:13:32.672348  8320 net.cpp:345] relu5 -> conv5 (in-place)
I0418 01:13:32.672358  8320 net.cpp:96] Setting up relu5
I0418 01:13:32.672363  8320 net.cpp:103] Top shape: 128 256 13 13 (5537792)
I0418 01:13:32.672369  8320 layer_factory.hpp:78] Creating layer pool5
I0418 01:13:32.672382  8320 net.cpp:67] Creating Layer pool5
I0418 01:13:32.672425  8320 net.cpp:394] pool5 <- conv5
I0418 01:13:32.672443  8320 net.cpp:356] pool5 -> pool5
I0418 01:13:32.672456  8320 net.cpp:96] Setting up pool5
I0418 01:13:32.672467  8320 net.cpp:103] Top shape: 128 256 6 6 (1179648)
I0418 01:13:32.672473  8320 layer_factory.hpp:78] Creating layer fc6
I0418 01:13:32.672498  8320 net.cpp:67] Creating Layer fc6
I0418 01:13:32.672539  8320 net.cpp:394] fc6 <- pool5
I0418 01:13:32.672552  8320 net.cpp:356] fc6 -> fc6
I0418 01:13:32.672564  8320 net.cpp:96] Setting up fc6
I0418 01:13:32.821589  8320 net.cpp:103] Top shape: 128 4096 1 1 (524288)
I0418 01:13:32.821699  8320 layer_factory.hpp:78] Creating layer relu6
I0418 01:13:32.821745  8320 net.cpp:67] Creating Layer relu6
I0418 01:13:32.821760  8320 net.cpp:394] relu6 <- fc6
I0418 01:13:32.821776  8320 net.cpp:345] relu6 -> fc6 (in-place)
I0418 01:13:32.821802  8320 net.cpp:96] Setting up relu6
I0418 01:13:32.821810  8320 net.cpp:103] Top shape: 128 4096 1 1 (524288)
I0418 01:13:32.821816  8320 layer_factory.hpp:78] Creating layer drop6
I0418 01:13:32.821849  8320 net.cpp:67] Creating Layer drop6
I0418 01:13:32.821856  8320 net.cpp:394] drop6 <- fc6
I0418 01:13:32.821864  8320 net.cpp:345] drop6 -> fc6 (in-place)
I0418 01:13:32.821876  8320 net.cpp:96] Setting up drop6
I0418 01:13:32.821904  8320 net.cpp:103] Top shape: 128 4096 1 1 (524288)
I0418 01:13:32.821910  8320 layer_factory.hpp:78] Creating layer fc7
I0418 01:13:32.821923  8320 net.cpp:67] Creating Layer fc7
I0418 01:13:32.821930  8320 net.cpp:394] fc7 <- fc6
I0418 01:13:32.821944  8320 net.cpp:356] fc7 -> fc7
I0418 01:13:32.821962  8320 net.cpp:96] Setting up fc7
I0418 01:13:32.887989  8320 net.cpp:103] Top shape: 128 4096 1 1 (524288)
I0418 01:13:32.888087  8320 layer_factory.hpp:78] Creating layer relu7
I0418 01:13:32.888118  8320 net.cpp:67] Creating Layer relu7
I0418 01:13:32.888128  8320 net.cpp:394] relu7 <- fc7
I0418 01:13:32.888140  8320 net.cpp:345] relu7 -> fc7 (in-place)
I0418 01:13:32.888159  8320 net.cpp:96] Setting up relu7
I0418 01:13:32.888166  8320 net.cpp:103] Top shape: 128 4096 1 1 (524288)
I0418 01:13:32.888170  8320 layer_factory.hpp:78] Creating layer drop7
I0418 01:13:32.888182  8320 net.cpp:67] Creating Layer drop7
I0418 01:13:32.888186  8320 net.cpp:394] drop7 <- fc7
I0418 01:13:32.888195  8320 net.cpp:345] drop7 -> fc7 (in-place)
I0418 01:13:32.888201  8320 net.cpp:96] Setting up drop7
I0418 01:13:32.888208  8320 net.cpp:103] Top shape: 128 4096 1 1 (524288)
I0418 01:13:32.888211  8320 layer_factory.hpp:78] Creating layer fc8
I0418 01:13:32.888221  8320 net.cpp:67] Creating Layer fc8
I0418 01:13:32.888224  8320 net.cpp:394] fc8 <- fc7
I0418 01:13:32.888234  8320 net.cpp:356] fc8 -> fc8
I0418 01:13:32.888244  8320 net.cpp:96] Setting up fc8
I0418 01:13:32.902801  8320 net.cpp:103] Top shape: 128 1000 1 1 (128000)
I0418 01:13:32.902894  8320 layer_factory.hpp:78] Creating layer prob
I0418 01:13:32.902925  8320 net.cpp:67] Creating Layer prob
I0418 01:13:32.902940  8320 net.cpp:394] prob <- fc8
I0418 01:13:32.902962  8320 net.cpp:356] prob -> prob
I0418 01:13:32.902989  8320 net.cpp:96] Setting up prob
I0418 01:13:32.903028  8320 net.cpp:103] Top shape: 128 1000 1 1 (128000)
I0418 01:13:32.903036  8320 net.cpp:172] prob does not need backward computation.
I0418 01:13:32.903043  8320 net.cpp:172] fc8 does not need backward computation.
I0418 01:13:32.903048  8320 net.cpp:172] drop7 does not need backward computation.
I0418 01:13:32.903054  8320 net.cpp:172] relu7 does not need backward computation.
I0418 01:13:32.903059  8320 net.cpp:172] fc7 does not need backward computation.
…
