…
15/04/18 17:02:34 INFO TaskSchedulerImpl: Adding task set 4.0 with 1 tasks
15/04/18 17:02:34 INFO TaskSetManager: Starting task 0.0 in stage 4.0 (TID 149, localhost, PROCESS_LOCAL, 1162 bytes)
15/04/18 17:02:34 INFO Executor: Running task 0.0 in stage 4.0 (TID 149)
15/04/18 17:02:34 INFO ShuffleBlockFetcherIterator: Getting 1 non-empty blocks out of 1 blocks
15/04/18 17:02:34 INFO ShuffleBlockFetcherIterator: Started 0 remote fetches in 1 ms
now time isSat Apr 18 17:02:49 2015
WARNING: Logging before InitGoogleLogging() is written to STDERR
I0418 17:02:49.378943  3721 net.cpp:39] Initializing net from parameters: 
name: "AlexNet"
layers {
  bottom: "data"
  top: "conv1"
  name: "conv1"
  type: CONVOLUTION
  blobs_lr: 1
  blobs_lr: 2
  weight_decay: 1
  weight_decay: 0
  convolution_param {
    num_output: 96
    kernel_size: 11
    stride: 4
  }
}
layers {
  bottom: "conv1"
  top: "conv1"
  name: "relu1"
  type: RELU
}
layers {
  bottom: "conv1"
  top: "norm1"
  name: "norm1"
  type: LRN
  lrn_param {
    local_size: 5
    alpha: 0.0001
    beta: 0.75
  }
}
layers {
  bottom: "norm1"
  top: "pool1"
  name: "pool1"
  type: POOLING
  pooling_param {
    pool: MAX
    kernel_size: 3
    stride: 2
  }
}
layers {
  bottom: "pool1"
  top: "conv2"
  name: "conv2"
  type: CONVOLUTION
  blobs_lr: 1
  blobs_lr: 2
  weight_decay: 1
  weight_decay: 0
  convolution_param {
    num_output: 256
    pad: 2
    kernel_size: 5
    group: 2
  }
}
layers {
  bottom: "conv2"
  top: "conv2"
  name: "relu2"
  type: RELU
}
layers {
  bottom: "conv2"
  top: "norm2"
  name: "norm2"
  type: LRN
  lrn_param {
    local_size: 5
    alpha: 0.0001
    beta: 0.75
  }
}
layers {
  bottom: "norm2"
  top: "pool2"
  name: "pool2"
  type: POOLING
  pooling_param {
    pool: MAX
    kernel_size: 3
    stride: 2
  }
}
layers {
  bottom: "pool2"
  top: "conv3"
  name: "conv3"
  type: CONVOLUTION
  blobs_lr: 1
  blobs_lr: 2
  weight_decay: 1
  weight_decay: 0
  convolution_param {
    num_output: 384
    pad: 1
    kernel_size: 3
  }
}
layers {
  bottom: "conv3"
  top: "conv3"
  name: "relu3"
  type: RELU
}
layers {
  bottom: "conv3"
  top: "conv4"
  name: "conv4"
  type: CONVOLUTION
  blobs_lr: 1
  blobs_lr: 2
  weight_decay: 1
  weight_decay: 0
  convolution_param {
    num_output: 384
    pad: 1
    kernel_size: 3
    group: 2
  }
}
layers {
  bottom: "conv4"
  top: "conv4"
  name: "relu4"
  type: RELU
}
layers {
  bottom: "conv4"
  top: "conv5"
  name: "conv5"
  type: CONVOLUTION
  blobs_lr: 1
  blobs_lr: 2
  weight_decay: 1
  weight_decay: 0
  convolution_param {
    num_output: 256
    pad: 1
    kernel_size: 3
    group: 2
  }
}
layers {
  bottom: "conv5"
  top: "conv5"
  name: "relu5"
  type: RELU
}
layers {
  bottom: "conv5"
  top: "pool5"
  name: "pool5"
  type: POOLING
  pooling_param {
    pool: MAX
    kernel_size: 3
    stride: 2
  }
}
layers {
  bottom: "pool5"
  top: "fc6"
  name: "fc6"
  type: INNER_PRODUCT
  blobs_lr: 1
  blobs_lr: 2
  weight_decay: 1
  weight_decay: 0
  inner_product_param {
    num_output: 4096
  }
}
layers {
  bottom: "fc6"
  top: "fc6"
  name: "relu6"
  type: RELU
}
layers {
  bottom: "fc6"
  top: "fc6"
  name: "drop6"
  type: DROPOUT
  dropout_param {
    dropout_ratio: 0.5
  }
}
layers {
  bottom: "fc6"
  top: "fc7"
  name: "fc7"
  type: INNER_PRODUCT
  blobs_lr: 1
  blobs_lr: 2
  weight_decay: 1
  weight_decay: 0
  inner_product_param {
    num_output: 4096
  }
}
layers {
  bottom: "fc7"
  top: "fc7"
  name: "relu7"
  type: RELU
}
layers {
  bottom: "fc7"
  top: "fc7"
  name: "drop7"
  type: DROPOUT
  dropout_param {
    dropout_ratio: 0.5
  }
}
layers {
  bottom: "fc7"
  top: "fc8"
  name: "fc8"
  type: INNER_PRODUCT
  blobs_lr: 1
  blobs_lr: 2
  weight_decay: 1
  weight_decay: 0
  inner_product_param {
    num_output: 1000
  }
}
layers {
  bottom: "fc8"
  top: "prob"
  name: "prob"
  type: SOFTMAX
}
input: "data"
input_dim: 256
input_dim: 3
input_dim: 227
input_dim: 227
I0418 17:02:49.379205  3721 net.cpp:358] Input 0 -> data
I0418 17:02:49.379262  3721 layer_factory.hpp:78] Creating layer conv1
I0418 17:02:49.379287  3721 net.cpp:67] Creating Layer conv1
I0418 17:02:49.379297  3721 net.cpp:394] conv1 <- data
I0418 17:02:49.379309  3721 net.cpp:356] conv1 -> conv1
I0418 17:02:49.379329  3721 net.cpp:96] Setting up conv1
I0418 17:02:49.379482  3721 net.cpp:103] Top shape: 256 96 55 55 (74342400)
I0418 17:02:49.379520  3721 layer_factory.hpp:78] Creating layer relu1
I0418 17:02:49.379534  3721 net.cpp:67] Creating Layer relu1
I0418 17:02:49.379539  3721 net.cpp:394] relu1 <- conv1
I0418 17:02:49.379547  3721 net.cpp:345] relu1 -> conv1 (in-place)
I0418 17:02:49.379557  3721 net.cpp:96] Setting up relu1
I0418 17:02:49.379569  3721 net.cpp:103] Top shape: 256 96 55 55 (74342400)
I0418 17:02:49.379575  3721 layer_factory.hpp:78] Creating layer norm1
I0418 17:02:49.379586  3721 net.cpp:67] Creating Layer norm1
I0418 17:02:49.379592  3721 net.cpp:394] norm1 <- conv1
I0418 17:02:49.379601  3721 net.cpp:356] norm1 -> norm1
I0418 17:02:49.379613  3721 net.cpp:96] Setting up norm1
I0418 17:02:49.379626  3721 net.cpp:103] Top shape: 256 96 55 55 (74342400)
I0418 17:02:49.379632  3721 layer_factory.hpp:78] Creating layer pool1
I0418 17:02:49.379642  3721 net.cpp:67] Creating Layer pool1
I0418 17:02:49.379647  3721 net.cpp:394] pool1 <- norm1
I0418 17:02:49.379655  3721 net.cpp:356] pool1 -> pool1
I0418 17:02:49.379667  3721 net.cpp:96] Setting up pool1
I0418 17:02:49.379684  3721 net.cpp:103] Top shape: 256 96 27 27 (17915904)
I0418 17:02:49.379691  3721 layer_factory.hpp:78] Creating layer conv2
I0418 17:02:49.379700  3721 net.cpp:67] Creating Layer conv2
I0418 17:02:49.379706  3721 net.cpp:394] conv2 <- pool1
I0418 17:02:49.379715  3721 net.cpp:356] conv2 -> conv2
I0418 17:02:49.379725  3721 net.cpp:96] Setting up conv2
I0418 17:02:49.381079  3721 net.cpp:103] Top shape: 256 256 27 27 (47775744)
I0418 17:02:49.381103  3721 layer_factory.hpp:78] Creating layer relu2
I0418 17:02:49.381113  3721 net.cpp:67] Creating Layer relu2
I0418 17:02:49.381119  3721 net.cpp:394] relu2 <- conv2
I0418 17:02:49.381127  3721 net.cpp:345] relu2 -> conv2 (in-place)
I0418 17:02:49.381137  3721 net.cpp:96] Setting up relu2
I0418 17:02:49.381144  3721 net.cpp:103] Top shape: 256 256 27 27 (47775744)
I0418 17:02:49.381150  3721 layer_factory.hpp:78] Creating layer norm2
I0418 17:02:49.381227  3721 net.cpp:67] Creating Layer norm2
I0418 17:02:49.381232  3721 net.cpp:394] norm2 <- conv2
I0418 17:02:49.381258  3721 net.cpp:356] norm2 -> norm2
I0418 17:02:49.381268  3721 net.cpp:96] Setting up norm2
I0418 17:02:49.381276  3721 net.cpp:103] Top shape: 256 256 27 27 (47775744)
I0418 17:02:49.381283  3721 layer_factory.hpp:78] Creating layer pool2
I0418 17:02:49.381290  3721 net.cpp:67] Creating Layer pool2
I0418 17:02:49.381296  3721 net.cpp:394] pool2 <- norm2
I0418 17:02:49.381305  3721 net.cpp:356] pool2 -> pool2
I0418 17:02:49.381314  3721 net.cpp:96] Setting up pool2
I0418 17:02:49.381322  3721 net.cpp:103] Top shape: 256 256 13 13 (11075584)
I0418 17:02:49.381330  3721 layer_factory.hpp:78] Creating layer conv3
I0418 17:02:49.381340  3721 net.cpp:67] Creating Layer conv3
I0418 17:02:49.381345  3721 net.cpp:394] conv3 <- pool2
I0418 17:02:49.381355  3721 net.cpp:356] conv3 -> conv3
I0418 17:02:49.381364  3721 net.cpp:96] Setting up conv3
I0418 17:02:49.385072  3721 net.cpp:103] Top shape: 256 384 13 13 (16613376)
I0418 17:02:49.385109  3721 layer_factory.hpp:78] Creating layer relu3
I0418 17:02:49.385123  3721 net.cpp:67] Creating Layer relu3
I0418 17:02:49.385128  3721 net.cpp:394] relu3 <- conv3
I0418 17:02:49.385135  3721 net.cpp:345] relu3 -> conv3 (in-place)
I0418 17:02:49.385143  3721 net.cpp:96] Setting up relu3
I0418 17:02:49.385148  3721 net.cpp:103] Top shape: 256 384 13 13 (16613376)
I0418 17:02:49.385151  3721 layer_factory.hpp:78] Creating layer conv4
I0418 17:02:49.385157  3721 net.cpp:67] Creating Layer conv4
I0418 17:02:49.385161  3721 net.cpp:394] conv4 <- conv3
I0418 17:02:49.385166  3721 net.cpp:356] conv4 -> conv4
I0418 17:02:49.385174  3721 net.cpp:96] Setting up conv4
I0418 17:02:49.387423  3721 net.cpp:103] Top shape: 256 384 13 13 (16613376)
I0418 17:02:49.387445  3721 layer_factory.hpp:78] Creating layer relu4
I0418 17:02:49.387455  3721 net.cpp:67] Creating Layer relu4
I0418 17:02:49.387459  3721 net.cpp:394] relu4 <- conv4
I0418 17:02:49.387466  3721 net.cpp:345] relu4 -> conv4 (in-place)
I0418 17:02:49.387473  3721 net.cpp:96] Setting up relu4
I0418 17:02:49.387477  3721 net.cpp:103] Top shape: 256 384 13 13 (16613376)
I0418 17:02:49.387481  3721 layer_factory.hpp:78] Creating layer conv5
I0418 17:02:49.387488  3721 net.cpp:67] Creating Layer conv5
I0418 17:02:49.387492  3721 net.cpp:394] conv5 <- conv4
I0418 17:02:49.387498  3721 net.cpp:356] conv5 -> conv5
I0418 17:02:49.387506  3721 net.cpp:96] Setting up conv5
I0418 17:02:49.388957  3721 net.cpp:103] Top shape: 256 256 13 13 (11075584)
I0418 17:02:49.388980  3721 layer_factory.hpp:78] Creating layer relu5
I0418 17:02:49.388989  3721 net.cpp:67] Creating Layer relu5
I0418 17:02:49.388994  3721 net.cpp:394] relu5 <- conv5
I0418 17:02:49.389000  3721 net.cpp:345] relu5 -> conv5 (in-place)
I0418 17:02:49.389006  3721 net.cpp:96] Setting up relu5
I0418 17:02:49.389010  3721 net.cpp:103] Top shape: 256 256 13 13 (11075584)
I0418 17:02:49.389014  3721 layer_factory.hpp:78] Creating layer pool5
I0418 17:02:49.389022  3721 net.cpp:67] Creating Layer pool5
I0418 17:02:49.389026  3721 net.cpp:394] pool5 <- conv5
I0418 17:02:49.389032  3721 net.cpp:356] pool5 -> pool5
I0418 17:02:49.389039  3721 net.cpp:96] Setting up pool5
I0418 17:02:49.389050  3721 net.cpp:103] Top shape: 256 256 6 6 (2359296)
I0418 17:02:49.389053  3721 layer_factory.hpp:78] Creating layer fc6
I0418 17:02:49.389078  3721 net.cpp:67] Creating Layer fc6
I0418 17:02:49.389168  3721 net.cpp:394] fc6 <- pool5
I0418 17:02:49.389178  3721 net.cpp:356] fc6 -> fc6
I0418 17:02:49.389190  3721 net.cpp:96] Setting up fc6
I0418 17:02:49.530621  3721 net.cpp:103] Top shape: 256 4096 1 1 (1048576)
I0418 17:02:49.530719  3721 layer_factory.hpp:78] Creating layer relu6
I0418 17:02:49.530764  3721 net.cpp:67] Creating Layer relu6
I0418 17:02:49.530776  3721 net.cpp:394] relu6 <- fc6
I0418 17:02:49.530791  3721 net.cpp:345] relu6 -> fc6 (in-place)
I0418 17:02:49.530814  3721 net.cpp:96] Setting up relu6
I0418 17:02:49.530823  3721 net.cpp:103] Top shape: 256 4096 1 1 (1048576)
I0418 17:02:49.530829  3721 layer_factory.hpp:78] Creating layer drop6
I0418 17:02:49.530868  3721 net.cpp:67] Creating Layer drop6
I0418 17:02:49.530874  3721 net.cpp:394] drop6 <- fc6
I0418 17:02:49.530882  3721 net.cpp:345] drop6 -> fc6 (in-place)
I0418 17:02:49.530892  3721 net.cpp:96] Setting up drop6
I0418 17:02:49.530901  3721 net.cpp:103] Top shape: 256 4096 1 1 (1048576)
I0418 17:02:49.530907  3721 layer_factory.hpp:78] Creating layer fc7
I0418 17:02:49.530920  3721 net.cpp:67] Creating Layer fc7
I0418 17:02:49.530975  3721 net.cpp:394] fc7 <- fc6
I0418 17:02:49.530987  3721 net.cpp:356] fc7 -> fc7
I0418 17:02:49.531002  3721 net.cpp:96] Setting up fc7
I0418 17:02:49.593827  3721 net.cpp:103] Top shape: 256 4096 1 1 (1048576)
I0418 17:02:49.593924  3721 layer_factory.hpp:78] Creating layer relu7
I0418 17:02:49.593950  3721 net.cpp:67] Creating Layer relu7
I0418 17:02:49.593962  3721 net.cpp:394] relu7 <- fc7
I0418 17:02:49.593974  3721 net.cpp:345] relu7 -> fc7 (in-place)
I0418 17:02:49.593994  3721 net.cpp:96] Setting up relu7
I0418 17:02:49.594000  3721 net.cpp:103] Top shape: 256 4096 1 1 (1048576)
I0418 17:02:49.594004  3721 layer_factory.hpp:78] Creating layer drop7
I0418 17:02:49.594017  3721 net.cpp:67] Creating Layer drop7
I0418 17:02:49.594020  3721 net.cpp:394] drop7 <- fc7
I0418 17:02:49.594027  3721 net.cpp:345] drop7 -> fc7 (in-place)
I0418 17:02:49.594034  3721 net.cpp:96] Setting up drop7
I0418 17:02:49.594041  3721 net.cpp:103] Top shape: 256 4096 1 1 (1048576)
I0418 17:02:49.594045  3721 layer_factory.hpp:78] Creating layer fc8
I0418 17:02:49.594056  3721 net.cpp:67] Creating Layer fc8
I0418 17:02:49.594060  3721 net.cpp:394] fc8 <- fc7
I0418 17:02:49.594069  3721 net.cpp:356] fc8 -> fc8
I0418 17:02:49.594076  3721 net.cpp:96] Setting up fc8
I0418 17:02:49.608860  3721 net.cpp:103] Top shape: 256 1000 1 1 (256000)
I0418 17:02:49.608968  3721 layer_factory.hpp:78] Creating layer prob
I0418 17:02:49.608995  3721 net.cpp:67] Creating Layer prob
I0418 17:02:49.609009  3721 net.cpp:394] prob <- fc8
I0418 17:02:49.609026  3721 net.cpp:356] prob -> prob
I0418 17:02:49.609050  3721 net.cpp:96] Setting up prob
I0418 17:02:49.609094  3721 net.cpp:103] Top shape: 256 1000 1 1 (256000)
I0418 17:02:49.609102  3721 net.cpp:172] prob does not need backward computation.
I0418 17:02:49.609107  3721 net.cpp:172] fc8 does not need backward computation.
I0418 17:02:49.609113  3721 net.cpp:172] drop7 does not need backward computation.
I0418 17:02:49.609119  3721 net.cpp:172] relu7 does not need backward computation.
I0418 17:02:49.609124  3721 net.cpp:172] fc7 does not need backward computation.
…
